…
e\n    ),\n    layers.SpatialDropout1D(0.3),\n    layers.Bidirectional(layers.SimpleRNN(64, dropout = 0.2, recurrent_dropout = 0.2)),\n    layers.Dense(32, activation = 'relu'),\n    layers.Dropout(0.2),\n    layers.Dense(16, activation = 'relu'),\n    layers.Dropout(0.2),\n    layers.Dense(1, activation = 'sigmoid')\n])\n\n\nmodel.summary()\n\nModel: \"sequential\"\n_________________________________________________________________\nLayer (type)                 Output Shape              Param #   \n=================================================================\ntext_vectorization (TextVect (None, 40)                0         \n_________________________________________________________________\nembedding (Embedding)        (None, 40, 400)           4000000   \n_________________________________________________________________\nspatial_dropout1d (SpatialDr (None, 40, 400)           0         \n_________________________________________________________________\nbidirectional (Bidirectional (None, 128)               59520     \n_________________________________________________________________\ndense (Dense)                (None, 32)                4128      \n_________________________________________________________________\ndropout (Dropout)            (None, 32)                0         \n_________________________________________________________________\ndense_1 (Dense)              (None, 16)                528       \n_________________________________________________________________\ndropout_1 (Dropout)          (None, 16)                0         \n_________________________________________________________________\ndense_2 (Dense)              (None, 1)                 17        \n=================================================================\nTotal params: 4,064,193\nTrainable params: 64,193\nNon-trainable params: 4,000,000\n_________________________________________________________________\n\n\n\nplot_model(model, show_shapes=True)\n\n\n\n\n\nmodel.compile(loss='binary_crossentropy',\n              optimizer='adam',\n              metrics=tf.metrics.BinaryAccu
…
_features, 64),\n    layers.GlobalAveragePooling1D(),\n    layers.Dense(16),\n    layers.Dropout(0.3),\n    layers.Dense(1)\n])\n\nThe input dim of Embedding layer should be the vocabulary size, because the Embedding at the end is a big matrix of each word represented by a vector (max_features, output)\n\n\n\nimage.png\n\n\n\nmodel.summary()\n\nModel: \"sequential\"\n_________________________________________________________________\nLayer (type)                 Output Shape              Param #   \n=================================================================\ntext_vectorization (TextVect (None, 250)               0         \n_________________________________________________________________\nembedding (Embedding)        (None, 250, 64)           640000    \n_________________________________________________________________\nglobal_average_pooling1d (Gl (None, 64)                0         \n_________________________________________________________________\ndense (Dense)                (None, 16)                1040      \n_________________________________________________________________\ndropout (Dropout)            (None, 16)                0         \n_________________________________________________________________\ndense_1 (Dense)              (None, 1)                 17        \n=================================================================\nTotal params: 641,057\nTrainable params: 641,057\nNon-trainable params: 0\n_________________________________________________________________\n\n\n\nplot_model(model, show_shapes=True)\n\n\n\n\n\nmodel.compile(loss=losses.BinaryCrossentropy(from_logits=True),\n              optimizer='adam',\n              metrics=tf.metri
…
    "text": "Model\nThe same architecture as above but now with the GloVe pre-trained embedding\n\nmodel = tf.keras.Sequential([\n    layers.Input(shape=(1,), dtype=tf.string),\n    vectorization_layer,\n    layers.Embedding(num_tokens,\n    embedding_dim,\n    embeddings_initializer=tf.keras.initializers.Constant(embedding_matrix),\n    trainable=True), # To Fine tune\n    layers.GlobalAveragePooling1D(),\n    layers.Dense(16),\n    layers.Dropout(0.3),\n    layers.Dense(1)\n])\n\n\nmodel.summary()\n\nModel: \"sequential_1\"\n_________________________________________________________________\nLayer (type)                 Output Shape              Param #   \n=================================================================\ntext_vectorization (TextVect (None, 250)               0         \n_________________________________________________________________\nembedding_1 (Embedding)      (None, 250, 50)           500000    \n_________________________________________________________________\nglobal_average_pooling1d_1 ( (None, 50)                0         \n_________________________________________________________________\ndense_2 (Dense)              (None, 16)                816       \n_________________________________________________________________\ndropout_1 (Dropout)          (None, 16)                0         \n_________________________________________________________________\ndense_3 (Dense)              (None, 1)                 17        \n=================================================================\nTotal params: 500,833\nTrainable params: 500,833\nNon-trainable params: 0\n_________________________________________________________________\n\n\n\nmodel.compile(loss=losses.BinaryCrossentropy(from_logits=True),\n              optimizer='adam',\n              metrics=tf.metrics.BinaryAccuracy(threshold=0.5))\n\n\nearly_st
…
    "text": "Model\n\nmodel = tf.keras.Sequential([\n    layers.Input(shape=(1,), dtype=tf.string),\n    vectorization_layer,\n    layers.Embedding(num_tokens,\n    embedding_dim,\n    embeddings_initializer=tf.keras.initializers.Constant(embedding_matrix),\n    trainable=True\n    ),\n    layers.GlobalAveragePooling1D(),\n    layers.Dense(16),\n    layers.Dropout(0.3),\n    layers.Dense(1)\n])\n\n\nmodel.summary()\n\nModel: \"sequential_2\"\n_________________________________________________________________\nLayer (type)                 Output Shape              Param #   \n=================================================================\ntext_vectorization (TextVect (None, 250)               0         \n_________________________________________________________________\nembedding_2 (Embedding)      (None, 250, 400)          4000000   \n_________________________________________________________________\nglobal_average_pooling1d_2 ( (None, 400)               0         \n_________________________________________________________________\ndense_4 (Dense)              (None, 16)                6416      \n_________________________________________________________________\ndropout_2 (Dropout)          (None, 16)                0         \n_________________________________________________________________\ndense_5 (Dense)              (None, 1)                 17        \n=================================================================\nTotal params: 4,006,433\nTrainable params: 4,006,433\nNon-trainable params: 0\n_________________________________________________________________\n\n\n\nmodel.compile(loss=losses.BinaryCrossentropy(from_logits=True),\n              optimizer='adam',\n              metrics=tf.metrics.BinaryAccuracy(threshold=0.5))\n\n\nearl
…
